…
p":1635401776462,"user_tz":-540,"elapsed":5,"user":{"displayName":"송강산","photoUrl":"https://lh3.googleusercontent.com/a/default-user=s64","userId":"17478840785712769399"}},"outputId":"fc7b0283-ff01-49e8-a3d3-ec7ea8f37dfe"},"source":["mnist.summary()"],"execution_count":16,"outputs":[{"output_type":"stream","name":"stdout","text":["Model: \"sequential_2\"\n","_________________________________________________________________\n","Layer (type)                 Output Shape              Param #   \n","=================================================================\n","conv2d_4 (Conv2D)            (None, 24, 24, 6)         156       \n","_________________________________________________________________\n","max_pooling2d_4 (MaxPooling2 (None, 12, 12, 6)         0         \n","_________________________________________________________________\n","conv2d_5 (Conv2D)            (None, 8, 8, 16)          2416      \n","_________________________________________________________________\n","max_pooling2d_5 (MaxPooling2 (None, 4, 4, 16)          0         \n","_________________________________________________________________\n","flatten_2 (Flatten)          (None, 256)               0         \n","_________________________________________________________________\n","dense_6 (Dense)              (None, 32)                8224      \n","_________________________________________________________________\n","dense_7 (Dense)              (None, 16)                528       \n","_________________________________________________________________\n","dense_8 (Dense)              (None, 10)                170       \n","=================================================================\n","Total params: 11,494\n","Trainable params: 11,494\n","Non-trainable params: 0\n","_________________________________________________________________\n"]}]},{"cell_type":"code","metadata":{"colab":{"base_uri":"https://localhost:8080/"},"id":"3ar675mBp-j9","executionInfo":{"status":"ok","timestamp":1635402159443,"user_t
…
