…
":{"elapsed":7302,"status":"ok","timestamp":1636003554306,"user":{"displayName":"송강산","photoUrl":"https://lh3.googleusercontent.com/a/default-user=s64","userId":"17478840785712769399"},"user_tz":-540},"id":"Ow16YQkrYE9t","outputId":"4fcc486e-4aa5-486e-97af-608f1ad2042e"},"outputs":[{"name":"stdout","output_type":"stream","text":["Model: \"sequential_58\"\n","_________________________________________________________________\n","Layer (type)                 Output Shape              Param #   \n","=================================================================\n","conv2d_2 (Conv2D)            (None, 24, 24, 6)         156       \n","=================================================================\n","Total params: 156\n","Trainable params: 156\n","Non-trainable params: 0\n","_________________________________________________________________\n","Model: \"sequential_59\"\n","_________________________________________________________________\n","Layer (type)                 Output Shape              Param #   \n","=================================================================\n","conv2d_2 (Conv2D)            (None, 24, 24, 6)         156       \n","_________________________________________________________________\n","max_pooling2d_2 (MaxPooling2 (None, 12, 12, 6)         0         \n","=================================================================\n","Total params: 156\n","Trainable params: 156\n","Non-trainable params: 0\n","_________________________________________________________________\n","Model: \"sequential_60\"\n","_________________________________________________________________\n","Layer (type)                 Output Shape              Param #   \n","=================================================================\n","conv2d_2 (Conv2D)            (None, 24, 24, 6)         156       \n","_________________________________________________________________\n","max_pooling2d_2 (MaxPooling2 (None, 12, 12, 6)         0         \n","_________________________________________________________________\n","conv2d_3 (Conv2D)            (None, 8, 8, 16)          2416      \n","=================================================================\n","Total params: 2,572\n","Trainable params: 2,572\n","Non-trainable params: 0\n","_________________________________________________________________\n","Model: \"sequential_61\"\n","_________________________________________________________________\n","Layer (type)                 Output Shape              Param #   \n","=================================================================\n","conv2d_2 (Conv2D)            (None, 24, 24, 6)         156       \n","_________________________________________________________________\n","max_pooling2d_2 (MaxPooling2 (None, 12, 12, 6)         0         \n","_________________________________________________________________\n","conv2d_3 (Conv2D)            (None, 8, 8, 16)          2416      \n","_________________________________________________________________\n","max_pooling2d_3 (MaxPooling2 (None, 4, 4, 16)          0         \n","=================================================================\n","Total params: 2,572\n","Trainable params: 2,572\n","Non-trainable params: 0\n","_________________________________________________________________\n","Model: \"sequential_62\"\n","_________________________________________________________________\n","Layer (type)                 Output Shape              Param #   \n","=================================================================\n","conv2d_2 (Conv2D)            (None, 24, 24, 6)         156       \n","_________________________________________________________________\n","max_pooling2d_2 (MaxPooling2 (None, 12, 12, 6)         0         \n","_________________________________________________________________\n","conv2d_3 (Conv2D)            (None, 8, 8, 16)          2416      \n","_________________________________________________________________\n","max_pooling2d_3 (MaxPooling2 (None, 4, 4, 16)          0         \n","_________________________________________________________________\n","flatten_1 (Flatten)          (None, 256)               0         \n","_________________________________________________________________\n","dense_3 (Dense)              (None, 64)                16448     \n","=================================================================\n","Total params: 19,020\n","Trainable params: 19,020\n","Non-trainable params: 0\n","_________________________________________________________________\n","Model: \"sequential_63\"\n","_________________________________________________________________\n","Layer (type)                 Output Shape              Param #   \n","=================================================================\n","conv2d_2 (Conv2D)            (None, 24, 24, 6)         156       \n","_________________________________________________________________\n","max_pooling2d_2 (MaxPooling2 (None, 12, 12, 6)         0         \n","_________________________________________________________________\n","conv2d_3 (Conv2D)            (None, 8, 8, 16)          2416      \n","_________________________________________________________________\n","max_pooling2d_3 (MaxPooling2 (None, 4, 4, 16)          0         \n","_________________________________________________________________\n","flatten_1 (Flatten)          (None, 256)               0         \n","_________________________________________________________________\n","dense_3 (Dense)              (None, 64)                16448     \n","_________________________________________________________________\n","dense_4 (Dense)              (None, 32)                2080      \n","=================================================================\n","Total params: 21,100\n","Trainable params: 21,100\n","Non-trainable params: 0\n","_________________________________________________________________\n"]}],"source":["#output\n","\n","conv1 = models.Sequential()\n","conv1.add(layers.InputLayer(input_shape=(28, 28, 1)))\n","conv1.add(sign_mnist.layers[0])\n","conv1.summa
…
